Model: "retinanet-mask"
__________________________________________________________________________________________________
Layer (type)                    Output Shape         Param #     Connected to
==================================================================================================
image (InputLayer)              [(None, 600, 600, 3) 0
__________________________________________________________________________________________________
padding_conv1 (ZeroPadding2D)   (None, 606, 606, 3)  0           image[0][0]
__________________________________________________________________________________________________
conv1 (Conv2D)                  (None, 300, 300, 64) 9408        padding_conv1[0][0]
__________________________________________________________________________________________________
bn_conv1 (BatchNormalization)   (None, 300, 300, 64) 256         conv1[0][0]
__________________________________________________________________________________________________
conv1_relu (Activation)         (None, 300, 300, 64) 0           bn_conv1[0][0]
__________________________________________________________________________________________________
pool1 (MaxPooling2D)            (None, 150, 150, 64) 0           conv1_relu[0][0]
__________________________________________________________________________________________________
res2a_branch2a (Conv2D)         (None, 150, 150, 64) 4096        pool1[0][0]
__________________________________________________________________________________________________
bn2a_branch2a (BatchNormalizati (None, 150, 150, 64) 256         res2a_branch2a[0][0]
__________________________________________________________________________________________________
res2a_branch2a_relu (Activation (None, 150, 150, 64) 0           bn2a_branch2a[0][0]
__________________________________________________________________________________________________
padding2a_branch2b (ZeroPadding (None, 152, 152, 64) 0           res2a_branch2a_relu[0][0]
__________________________________________________________________________________________________
res2a_branch2b (Conv2D)         (None, 150, 150, 64) 36864       padding2a_branch2b[0][0]
__________________________________________________________________________________________________
bn2a_branch2b (BatchNormalizati (None, 150, 150, 64) 256         res2a_branch2b[0][0]
__________________________________________________________________________________________________
res2a_branch2b_relu (Activation (None, 150, 150, 64) 0           bn2a_branch2b[0][0]
__________________________________________________________________________________________________
res2a_branch2c (Conv2D)         (None, 150, 150, 256 16384       res2a_branch2b_relu[0][0]
__________________________________________________________________________________________________
res2a_branch1 (Conv2D)          (None, 150, 150, 256 16384       pool1[0][0]
…
bn2a_branch1 (BatchNormalizatio (None, 150, 150, 256 1024        res2a_branch1[0][0]
__________________________________________________________________________________________________
tf_op_layer_tyu_res2a (TensorFl [(None, 150, 150, 25 0           bn2a_branch2c[0][0]
                                                                 bn2a_branch1[0][0]
__________________________________________________________________________________________________
res2a_relu (Activation)         (None, 150, 150, 256 0           tf_op_layer_tyu_res2a[0][0]
__________________________________________________________________________________________________
res2b_branch2a (Conv2D)         (None, 150, 150, 64) 16384       res2a_relu[0][0]
__________________________________________________________________________________________________
bn2b_branch2a (BatchNormalizati (None, 150, 150, 64) 256         res2b_branch2a[0][0]
__________________________________________________________________________________________________
res2b_branch2a_relu (Activation (None, 150, 150, 64) 0           bn2b_branch2a[0][0]
__________________________________________________________________________________________________
padding2b_branch2b (ZeroPadding (None, 152, 152, 64) 0           res2b_branch2a_relu[0][0]
__________________________________________________________________________________________________
res2b_branch2b (Conv2D)         (None, 150, 150, 64) 36864       padding2b_branch2b[0][0]
__________________________________________________________________________________________________
bn2b_branch2b (BatchNormalizati (None, 150, 150, 64) 256         res2b_branch2b[0][0]
__________________________________________________________________________________________________
res2b_branch2b_relu (Activation (None, 150, 150, 64) 0           bn2b_branch2b[0][0]
__________________________________________________________________________________________________
res2b_branch2c (Conv2D)         (None, 150, 150, 256 16384       res2b_branch2b_relu[0][0]
__________________________________________________________________________________________________
bn2b_branch2c (BatchNormalizati (None, 150, 150, 256 1024        res2b_branch2c[0][0]
…
bn2c_branch2c (BatchNormalizati (None, 150, 150, 256 1024        res2c_branch2c[0][0]
__________________________________________________________________________________________________
tf_op_layer_tyu_res2c (TensorFl [(None, 150, 150, 25 0           bn2c_branch2c[0][0]
                                                                 res2b_relu[0][0]
__________________________________________________________________________________________________
res2c_relu (Activation)         (None, 150, 150, 256 0           tf_op_layer_tyu_res2c[0][0]
__________________________________________________________________________________________________
res3a_branch2a (Conv2D)         (None, 75, 75, 128)  32768       res2c_relu[0][0]
__________________________________________________________________________________________________
bn3a_branch2a (BatchNormalizati (None, 75, 75, 128)  512         res3a_branch2a[0][0]
__________________________________________________________________________________________________
res3a_branch2a_relu (Activation (None, 75, 75, 128)  0           bn3a_branch2a[0][0]
__________________________________________________________________________________________________
padding3a_branch2b (ZeroPadding (None, 77, 77, 128)  0           res3a_branch2a_relu[0][0]
__________________________________________________________________________________________________
res3a_branch2b (Conv2D)         (None, 75, 75, 128)  147456      padding3a_branch2b[0][0]
__________________________________________________________________________________________________
bn3a_branch2b (BatchNormalizati (None, 75, 75, 128)  512         res3a_branch2b[0][0]
__________________________________________________________________________________________________
res3a_branch2b_relu (Activation (None, 75, 75, 128)  0           bn3a_branch2b[0][0]
__________________________________________________________________________________________________
res3a_branch2c (Conv2D)         (None, 75, 75, 512)  65536       res3a_branch2b_relu[0][0]
__________________________________________________________________________________________________
res3a_branch1 (Conv2D)          (None, 75, 75, 512)  131072      res2c_relu[0][0]
__________________________________________________________________________________________________
bn3a_branch2c (BatchNormalizati (None, 75, 75, 512)  2048        res3a_branch2c[0][0]
__________________________________________________________________________________________________
bn3a_branch1 (BatchNormalizatio (None, 75, 75, 512)  2048        res3a_branch1[0][0]
__________________________________________________________________________________________________
tf_op_layer_tyu_res3a (TensorFl [(None, 75, 75, 512) 0           bn3a_branch2c[0][0]
                                                                 bn3a_branch1[0][0]
__________________________________________________________________________________________________
res3a_relu (Activation)         (None, 75, 75, 512)  0           tf_op_layer_tyu_res3a[0][0]
__________________________________________________________________________________________________
res3b_branch2a (Conv2D)         (None, 75, 75, 128)  65536       res3a_relu[0][0]
__________________________________________________________________________________________________
bn3b_branch2a (BatchNormalizati (None, 75, 75, 128)  512         res3b_branch2a[0][0]
__________________________________________________________________________________________________
res3b_branch2a_relu (Activation (None, 75, 75, 128)  0           bn3b_branch2a[0][0]
__________________________________________________________________________________________________
padding3b_branch2b (ZeroPadding (None, 77, 77, 128)  0           res3b_branch2a_relu[0][0]
__________________________________________________________________________________________________
res3b_branch2b (Conv2D)         (None, 75, 75, 128)  147456      padding3b_branch2b[0][0]
__________________________________________________________________________________________________
bn3b_branch2b (BatchNormalizati (None, 75, 75, 128)  512         res3b_branch2b[0][0]
__________________________________________________________________________________________________
res3b_branch2b_relu (Activation (None, 75, 75, 128)  0           bn3b_branch2b[0][0]
__________________________________________________________________________________________________
res3b_branch2c (Conv2D)         (None, 75, 75, 512)  65536       res3b_branch2b_relu[0][0]
__________________________________________________________________________________________________
bn3b_branch2c (BatchNormalizati (None, 75, 75, 512)  2048        res3b_branch2c[0][0]
__________________________________________________________________________________________________
tf_op_layer_tyu_res3b (TensorFl [(None, 75, 75, 512) 0           bn3b_branch2c[0][0]
                                                                 res3a_relu[0][0]
__________________________________________________________________________________________________
res3b_relu (Activation)         (None, 75, 75, 512)  0           tf_op_layer_tyu_res3b[0][0]
__________________________________________________________________________________________________
res3c_branch2a (Conv2D)         (None, 75, 75, 128)  65536       res3b_relu[0][0]
__________________________________________________________________________________________________
bn3c_branch2a (BatchNormalizati (None, 75, 75, 128)  512         res3c_branch2a[0][0]
__________________________________________________________________________________________________
res3c_branch2a_relu (Activation (None, 75, 75, 128)  0           bn3c_branch2a[0][0]
__________________________________________________________________________________________________
padding3c_branch2b (ZeroPadding (None, 77, 77, 128)  0           res3c_branch2a_relu[0][0]
__________________________________________________________________________________________________
res3c_branch2b (Conv2D)         (None, 75, 75, 128)  147456      padding3c_branch2b[0][0]
__________________________________________________________________________________________________
bn3c_branch2b (BatchNormalizati (None, 75, 75, 128)  512         res3c_branch2b[0][0]
__________________________________________________________________________________________________
res3c_branch2b_relu (Activation (None, 75, 75, 128)  0           bn3c_branch2b[0][0]
__________________________________________________________________________________________________
res3c_branch2c (Conv2D)         (None, 75, 75, 512)  65536       res3c_branch2b_relu[0][0]
__________________________________________________________________________________________________
bn3c_branch2c (BatchNormalizati (None, 75, 75, 512)  2048        res3c_branch2c[0][0]
__________________________________________________________________________________________________
tf_op_layer_tyu_res3c (TensorFl [(None, 75, 75, 512) 0           bn3c_branch2c[0][0]
                                                                 res3b_relu[0][0]
__________________________________________________________________________________________________
res3c_relu (Activation)         (None, 75, 75, 512)  0           tf_op_layer_tyu_res3c[0][0]
__________________________________________________________________________________________________
res3d_branch2a (Conv2D)         (None, 75, 75, 128)  65536       res3c_relu[0][0]
__________________________________________________________________________________________________
bn3d_branch2a (BatchNormalizati (None, 75, 75, 128)  512         res3d_branch2a[0][0]
__________________________________________________________________________________________________
res3d_branch2a_relu (Activation (None, 75, 75, 128)  0           bn3d_branch2a[0][0]
__________________________________________________________________________________________________
padding3d_branch2b (ZeroPadding (None, 77, 77, 128)  0           res3d_branch2a_relu[0][0]
__________________________________________________________________________________________________
res3d_branch2b (Conv2D)         (None, 75, 75, 128)  147456      padding3d_branch2b[0][0]
__________________________________________________________________________________________________
bn3d_branch2b (BatchNormalizati (None, 75, 75, 128)  512         res3d_branch2b[0][0]
__________________________________________________________________________________________________
res3d_branch2b_relu (Activation (None, 75, 75, 128)  0           bn3d_branch2b[0][0]
__________________________________________________________________________________________________
res3d_branch2c (Conv2D)         (None, 75, 75, 512)  65536       res3d_branch2b_relu[0][0]
__________________________________________________________________________________________________
bn3d_branch2c (BatchNormalizati (None, 75, 75, 512)  2048        res3d_branch2c[0][0]
__________________________________________________________________________________________________
tf_op_layer_tyu_res3d (TensorFl [(None, 75, 75, 512) 0           bn3d_branch2c[0][0]
                                                                 res3c_relu[0][0]
__________________________________________________________________________________________________
res3d_relu (Activation)         (None, 75, 75, 512)  0           tf_op_layer_tyu_res3d[0][0]
__________________________________________________________________________________________________
res4a_branch2a (Conv2D)         (None, 38, 38, 256)  131072      res3d_relu[0][0]
__________________________________________________________________________________________________
bn4a_branch2a (BatchNormalizati (None, 38, 38, 256)  1024        res4a_branch2a[0][0]
__________________________________________________________________________________________________
res4a_branch2a_relu (Activation (None, 38, 38, 256)  0           bn4a_branch2a[0][0]
__________________________________________________________________________________________________
padding4a_branch2b (ZeroPadding (None, 40, 40, 256)  0           res4a_branch2a_relu[0][0]
__________________________________________________________________________________________________
res4a_branch2b (Conv2D)         (None, 38, 38, 256)  589824      padding4a_branch2b[0][0]
__________________________________________________________________________________________________
bn4a_branch2b (BatchNormalizati (None, 38, 38, 256)  1024        res4a_branch2b[0][0]
__________________________________________________________________________________________________
res4a_branch2b_relu (Activation (None, 38, 38, 256)  0           bn4a_branch2b[0][0]
__________________________________________________________________________________________________
res4a_branch2c (Conv2D)         (None, 38, 38, 1024) 262144      res4a_branch2b_relu[0][0]
__________________________________________________________________________________________________
res4a_branch1 (Conv2D)          (None, 38, 38, 1024) 524288      res3d_relu[0][0]
__________________________________________________________________________________________________
bn4a_branch2c (BatchNormalizati (None, 38, 38, 1024) 4096        res4a_branch2c[0][0]
__________________________________________________________________________________________________
bn4a_branch1 (BatchNormalizatio (None, 38, 38, 1024) 4096        res4a_branch1[0][0]
__________________________________________________________________________________________________
tf_op_layer_tyu_res4a (TensorFl [(None, 38, 38, 1024 0           bn4a_branch2c[0][0]
                                                                 bn4a_branch1[0][0]
__________________________________________________________________________________________________
res4a_relu (Activation)         (None, 38, 38, 1024) 0           tf_op_layer_tyu_res4a[0][0]
__________________________________________________________________________________________________
res4b_branch2a (Conv2D)         (None, 38, 38, 256)  262144      res4a_relu[0][0]
__________________________________________________________________________________________________
bn4b_branch2a (BatchNormalizati (None, 38, 38, 256)  1024        res4b_branch2a[0][0]
__________________________________________________________________________________________________
res4b_branch2a_relu (Activation (None, 38, 38, 256)  0           bn4b_branch2a[0][0]
__________________________________________________________________________________________________
padding4b_branch2b (ZeroPadding (None, 40, 40, 256)  0           res4b_branch2a_relu[0][0]
__________________________________________________________________________________________________
res4b_branch2b (Conv2D)         (None, 38, 38, 256)  589824      padding4b_branch2b[0][0]
__________________________________________________________________________________________________
bn4b_branch2b (BatchNormalizati (None, 38, 38, 256)  1024        res4b_branch2b[0][0]
__________________________________________________________________________________________________
res4b_branch2b_relu (Activation (None, 38, 38, 256)  0           bn4b_branch2b[0][0]
__________________________________________________________________________________________________
res4b_branch2c (Conv2D)         (None, 38, 38, 1024) 262144      res4b_branch2b_relu[0][0]
__________________________________________________________________________________________________
bn4b_branch2c (BatchNormalizati (None, 38, 38, 1024) 4096        res4b_branch2c[0][0]
__________________________________________________________________________________________________
tf_op_layer_tyu_res4b (TensorFl [(None, 38, 38, 1024 0           bn4b_branch2c[0][0]
                                                                 res4a_relu[0][0]
__________________________________________________________________________________________________
res4b_relu (Activation)         (None, 38, 38, 1024) 0           tf_op_layer_tyu_res4b[0][0]
__________________________________________________________________________________________________
res4c_branch2a (Conv2D)         (None, 38, 38, 256)  262144      res4b_relu[0][0]
__________________________________________________________________________________________________
bn4c_branch2a (BatchNormalizati (None, 38, 38, 256)  1024        res4c_branch2a[0][0]
__________________________________________________________________________________________________
res4c_branch2a_relu (Activation (None, 38, 38, 256)  0           bn4c_branch2a[0][0]
__________________________________________________________________________________________________
padding4c_branch2b (ZeroPadding (None, 40, 40, 256)  0           res4c_branch2a_relu[0][0]
__________________________________________________________________________________________________
res4c_branch2b (Conv2D)         (None, 38, 38, 256)  589824      padding4c_branch2b[0][0]
__________________________________________________________________________________________________
bn4c_branch2b (BatchNormalizati (None, 38, 38, 256)  1024        res4c_branch2b[0][0]
__________________________________________________________________________________________________
res4c_branch2b_relu (Activation (None, 38, 38, 256)  0           bn4c_branch2b[0][0]
__________________________________________________________________________________________________
res4c_branch2c (Conv2D)         (None, 38, 38, 1024) 262144      res4c_branch2b_relu[0][0]
__________________________________________________________________________________________________
bn4c_branch2c (BatchNormalizati (None, 38, 38, 1024) 4096        res4c_branch2c[0][0]
__________________________________________________________________________________________________
tf_op_layer_tyu_res4c (TensorFl [(None, 38, 38, 1024 0           bn4c_branch2c[0][0]
                                                                 res4b_relu[0][0]
__________________________________________________________________________________________________
res4c_relu (Activation)         (None, 38, 38, 1024) 0           tf_op_layer_tyu_res4c[0][0]
__________________________________________________________________________________________________
res4d_branch2a (Conv2D)         (None, 38, 38, 256)  262144      res4c_relu[0][0]
__________________________________________________________________________________________________
bn4d_branch2a (BatchNormalizati (None, 38, 38, 256)  1024        res4d_branch2a[0][0]
__________________________________________________________________________________________________
res4d_branch2a_relu (Activation (None, 38, 38, 256)  0           bn4d_branch2a[0][0]
__________________________________________________________________________________________________
padding4d_branch2b (ZeroPadding (None, 40, 40, 256)  0           res4d_branch2a_relu[0][0]
__________________________________________________________________________________________________
res4d_branch2b (Conv2D)         (None, 38, 38, 256)  589824      padding4d_branch2b[0][0]
__________________________________________________________________________________________________
bn4d_branch2b (BatchNormalizati (None, 38, 38, 256)  1024        res4d_branch2b[0][0]
__________________________________________________________________________________________________
res4d_branch2b_relu (Activation (None, 38, 38, 256)  0           bn4d_branch2b[0][0]
__________________________________________________________________________________________________
res4d_branch2c (Conv2D)         (None, 38, 38, 1024) 262144      res4d_branch2b_relu[0][0]
__________________________________________________________________________________________________
bn4d_branch2c (BatchNormalizati (None, 38, 38, 1024) 4096        res4d_branch2c[0][0]
__________________________________________________________________________________________________
tf_op_layer_tyu_res4d (TensorFl [(None, 38, 38, 1024 0           bn4d_branch2c[0][0]
                                                                 res4c_relu[0][0]
__________________________________________________________________________________________________
res4d_relu (Activation)         (None, 38, 38, 1024) 0           tf_op_layer_tyu_res4d[0][0]
__________________________________________________________________________________________________
res4e_branch2a (Conv2D)         (None, 38, 38, 256)  262144      res4d_relu[0][0]
__________________________________________________________________________________________________
bn4e_branch2a (BatchNormalizati (None, 38, 38, 256)  1024        res4e_branch2a[0][0]
__________________________________________________________________________________________________
res4e_branch2a_relu (Activation (None, 38, 38, 256)  0           bn4e_branch2a[0][0]
__________________________________________________________________________________________________
padding4e_branch2b (ZeroPadding (None, 40, 40, 256)  0           res4e_branch2a_relu[0][0]
__________________________________________________________________________________________________
res4e_branch2b (Conv2D)         (None, 38, 38, 256)  589824      padding4e_branch2b[0][0]
__________________________________________________________________________________________________
bn4e_branch2b (BatchNormalizati (None, 38, 38, 256)  1024        res4e_branch2b[0][0]
__________________________________________________________________________________________________
res4e_branch2b_relu (Activation (None, 38, 38, 256)  0           bn4e_branch2b[0][0]
__________________________________________________________________________________________________
res4e_branch2c (Conv2D)         (None, 38, 38, 1024) 262144      res4e_branch2b_relu[0][0]
__________________________________________________________________________________________________
bn4e_branch2c (BatchNormalizati (None, 38, 38, 1024) 4096        res4e_branch2c[0][0]
__________________________________________________________________________________________________
tf_op_layer_tyu_res4e (TensorFl [(None, 38, 38, 1024 0           bn4e_branch2c[0][0]
                                                                 res4d_relu[0][0]
__________________________________________________________________________________________________
res4e_relu (Activation)         (None, 38, 38, 1024) 0           tf_op_layer_tyu_res4e[0][0]
__________________________________________________________________________________________________
res4f_branch2a (Conv2D)         (None, 38, 38, 256)  262144      res4e_relu[0][0]
__________________________________________________________________________________________________
bn4f_branch2a (BatchNormalizati (None, 38, 38, 256)  1024        res4f_branch2a[0][0]
__________________________________________________________________________________________________
res4f_branch2a_relu (Activation (None, 38, 38, 256)  0           bn4f_branch2a[0][0]
__________________________________________________________________________________________________
padding4f_branch2b (ZeroPadding (None, 40, 40, 256)  0           res4f_branch2a_relu[0][0]
__________________________________________________________________________________________________
res4f_branch2b (Conv2D)         (None, 38, 38, 256)  589824      padding4f_branch2b[0][0]
__________________________________________________________________________________________________
bn4f_branch2b (BatchNormalizati (None, 38, 38, 256)  1024        res4f_branch2b[0][0]
__________________________________________________________________________________________________
res4f_branch2b_relu (Activation (None, 38, 38, 256)  0           bn4f_branch2b[0][0]
__________________________________________________________________________________________________
res4f_branch2c (Conv2D)         (None, 38, 38, 1024) 262144      res4f_branch2b_relu[0][0]
__________________________________________________________________________________________________
bn4f_branch2c (BatchNormalizati (None, 38, 38, 1024) 4096        res4f_branch2c[0][0]
__________________________________________________________________________________________________
tf_op_layer_tyu_res4f (TensorFl [(None, 38, 38, 1024 0           bn4f_branch2c[0][0]
                                                                 res4e_relu[0][0]
__________________________________________________________________________________________________
res4f_relu (Activation)         (None, 38, 38, 1024) 0           tf_op_layer_tyu_res4f[0][0]
__________________________________________________________________________________________________
res5a_branch2a (Conv2D)         (None, 19, 19, 512)  524288      res4f_relu[0][0]
__________________________________________________________________________________________________
bn5a_branch2a (BatchNormalizati (None, 19, 19, 512)  2048        res5a_branch2a[0][0]
__________________________________________________________________________________________________
res5a_branch2a_relu (Activation (None, 19, 19, 512)  0           bn5a_branch2a[0][0]
__________________________________________________________________________________________________
padding5a_branch2b (ZeroPadding (None, 21, 21, 512)  0           res5a_branch2a_relu[0][0]
__________________________________________________________________________________________________
res5a_branch2b (Conv2D)         (None, 19, 19, 512)  2359296     padding5a_branch2b[0][0]
__________________________________________________________________________________________________
bn5a_branch2b (BatchNormalizati (None, 19, 19, 512)  2048        res5a_branch2b[0][0]
__________________________________________________________________________________________________
res5a_branch2b_relu (Activation (None, 19, 19, 512)  0           bn5a_branch2b[0][0]
__________________________________________________________________________________________________
res5a_branch2c (Conv2D)         (None, 19, 19, 2048) 1048576     res5a_branch2b_relu[0][0]
__________________________________________________________________________________________________
res5a_branch1 (Conv2D)          (None, 19, 19, 2048) 2097152     res4f_relu[0][0]
__________________________________________________________________________________________________
bn5a_branch2c (BatchNormalizati (None, 19, 19, 2048) 8192        res5a_branch2c[0][0]
__________________________________________________________________________________________________
bn5a_branch1 (BatchNormalizatio (None, 19, 19, 2048) 8192        res5a_branch1[0][0]
__________________________________________________________________________________________________
tf_op_layer_tyu_res5a (TensorFl [(None, 19, 19, 2048 0           bn5a_branch2c[0][0]
                                                                 bn5a_branch1[0][0]
__________________________________________________________________________________________________
res5a_relu (Activation)         (None, 19, 19, 2048) 0           tf_op_layer_tyu_res5a[0][0]
__________________________________________________________________________________________________
res5b_branch2a (Conv2D)         (None, 19, 19, 512)  1048576     res5a_relu[0][0]
__________________________________________________________________________________________________
bn5b_branch2a (BatchNormalizati (None, 19, 19, 512)  2048        res5b_branch2a[0][0]
__________________________________________________________________________________________________
res5b_branch2a_relu (Activation (None, 19, 19, 512)  0           bn5b_branch2a[0][0]
__________________________________________________________________________________________________
padding5b_branch2b (ZeroPadding (None, 21, 21, 512)  0           res5b_branch2a_relu[0][0]
__________________________________________________________________________________________________
res5b_branch2b (Conv2D)         (None, 19, 19, 512)  2359296     padding5b_branch2b[0][0]
__________________________________________________________________________________________________
bn5b_branch2b (BatchNormalizati (None, 19, 19, 512)  2048        res5b_branch2b[0][0]
__________________________________________________________________________________________________
res5b_branch2b_relu (Activation (None, 19, 19, 512)  0           bn5b_branch2b[0][0]
__________________________________________________________________________________________________
res5b_branch2c (Conv2D)         (None, 19, 19, 2048) 1048576     res5b_branch2b_relu[0][0]
__________________________________________________________________________________________________
bn5b_branch2c (BatchNormalizati (None, 19, 19, 2048) 8192        res5b_branch2c[0][0]
__________________________________________________________________________________________________
tf_op_layer_tyu_res5b (TensorFl [(None, 19, 19, 2048 0           bn5b_branch2c[0][0]
                                                                 res5a_relu[0][0]
__________________________________________________________________________________________________
res5b_relu (Activation)         (None, 19, 19, 2048) 0           tf_op_layer_tyu_res5b[0][0]
__________________________________________________________________________________________________
res5c_branch2a (Conv2D)         (None, 19, 19, 512)  1048576     res5b_relu[0][0]
__________________________________________________________________________________________________
bn5c_branch2a (BatchNormalizati (None, 19, 19, 512)  2048        res5c_branch2a[0][0]
__________________________________________________________________________________________________
res5c_branch2a_relu (Activation (None, 19, 19, 512)  0           bn5c_branch2a[0][0]
__________________________________________________________________________________________________
padding5c_branch2b (ZeroPadding (None, 21, 21, 512)  0           res5c_branch2a_relu[0][0]
__________________________________________________________________________________________________
res5c_branch2b (Conv2D)         (None, 19, 19, 512)  2359296     padding5c_branch2b[0][0]
__________________________________________________________________________________________________
bn5c_branch2b (BatchNormalizati (None, 19, 19, 512)  2048        res5c_branch2b[0][0]
__________________________________________________________________________________________________
res5c_branch2b_relu (Activation (None, 19, 19, 512)  0           bn5c_branch2b[0][0]
__________________________________________________________________________________________________
res5c_branch2c (Conv2D)         (None, 19, 19, 2048) 1048576     res5c_branch2b_relu[0][0]
__________________________________________________________________________________________________
bn5c_branch2c (BatchNormalizati (None, 19, 19, 2048) 8192        res5c_branch2c[0][0]
__________________________________________________________________________________________________
tf_op_layer_tyu_res5c (TensorFl [(None, 19, 19, 2048 0           bn5c_branch2c[0][0]
                                                                 res5b_relu[0][0]
__________________________________________________________________________________________________
res5c_relu (Activation)         (None, 19, 19, 2048) 0           tf_op_layer_tyu_res5c[0][0]
__________________________________________________________________________________________________
C5_reduced (Conv2D)             (None, 19, 19, 256)  524544      res5c_relu[0][0]
__________________________________________________________________________________________________
P5_upsampled (UpsampleLike)     (None, None, None, 2 0           C5_reduced[0][0]
                                                                 res4f_relu[0][0]
__________________________________________________________________________________________________
C4_reduced (Conv2D)             (None, 38, 38, 256)  262400      res4f_relu[0][0]
__________________________________________________________________________________________________
tf_op_layer_P4_merged (TensorFl [(None, 38, 38, 256) 0           P5_upsampled[0][0]
                                                                 C4_reduced[0][0]
__________________________________________________________________________________________________
P4_upsampled (UpsampleLike)     (None, None, None, 2 0           tf_op_layer_P4_merged[0][0]
                                                                 res3d_relu[0][0]
__________________________________________________________________________________________________
C3_reduced (Conv2D)             (None, 75, 75, 256)  131328      res3d_relu[0][0]
__________________________________________________________________________________________________
P6 (Conv2D)                     (None, 10, 10, 256)  4718848     res5c_relu[0][0]
__________________________________________________________________________________________________
tf_op_layer_P3_merged (TensorFl [(None, 75, 75, 256) 0           P4_upsampled[0][0]
                                                                 C3_reduced[0][0]
__________________________________________________________________________________________________
C6_relu (Activation)            (None, 10, 10, 256)  0           P6[0][0]
__________________________________________________________________________________________________
P3 (Conv2D)                     (None, 75, 75, 256)  590080      tf_op_layer_P3_merged[0][0]
__________________________________________________________________________________________________
P4 (Conv2D)                     (None, 38, 38, 256)  590080      tf_op_layer_P4_merged[0][0]
__________________________________________________________________________________________________
P5 (Conv2D)                     (None, 19, 19, 256)  590080      C5_reduced[0][0]
__________________________________________________________________________________________________
P7 (Conv2D)                     (None, 5, 5, 256)    590080      C6_relu[0][0]
__________________________________________________________________________________________________
regression_submodel (Model)     (None, None, 4)      2443300     P3[0][0]
                                                                 P4[0][0]
                                                                 P5[0][0]
                                                                 P6[0][0]
…
